/public/home/wangyuanhao/miniconda3/envs/frcnn/bin/python
WARNING ⚠️ no model scale passed. Assuming scale='n'.

                   from  n    params  module                                       arguments                     
  0                  -1  1       464  ultralytics.nn.modules.conv.Conv             [3, 16, 3, 2]                 
  1                  -1  1      4672  ultralytics.nn.modules.conv.Conv             [16, 32, 3, 2]                
  2                  -1  1     15222  ultralytics.nn.modules.block.C2f_DCN         [32, 32, 1, True]             
  3                  -1  1     18560  ultralytics.nn.modules.conv.Conv             [32, 64, 3, 2]                
  4                  -1  2     81004  ultralytics.nn.modules.block.C2f_DCN         [64, 64, 2, True]             
  5                  -1  1     73984  ultralytics.nn.modules.conv.Conv             [64, 128, 3, 2]               
  6                  -1  2    260204  ultralytics.nn.modules.block.C2f_DCN         [128, 128, 2, True]           
  7                  -1  1    295424  ultralytics.nn.modules.conv.Conv             [128, 256, 3, 2]              
  8                  -1  1    522806  ultralytics.nn.modules.block.C2f_DCN         [256, 256, 1, True]           
  9                  -1  1    164608  ultralytics.nn.modules.block.SPPF            [256, 256, 5]                 
 10                  -1  1         0  torch.nn.modules.upsampling.Upsample         [None, 2, 'nearest']          
 11             [-1, 6]  1         0  ultralytics.nn.modules.conv.Concat           [1]                           
 12                  -1  1    179510  ultralytics.nn.modules.block.C2f_DCN         [384, 128, 1]                 
 13                  -1  1         0  torch.nn.modules.upsampling.Upsample         [None, 2, 'nearest']          
 14             [-1, 4]  1         0  ultralytics.nn.modules.conv.Concat           [1]                           
 15                  -1  1     52918  ultralytics.nn.modules.block.C2f_DCN         [192, 64, 1]                  
 16                  -1  1      4258  ultralytics.nn.modules.conv.CBAM             [64]                          
 17                  -1  1     36992  ultralytics.nn.modules.conv.Conv             [64, 64, 3, 2]                
 18            [-1, 12]  1         0  ultralytics.nn.modules.conv.Concat           [1]                           
 19                  -1  1    154934  ultralytics.nn.modules.block.C2f_DCN         [192, 128, 1]                 
 20                  -1  1     16610  ultralytics.nn.modules.conv.CBAM             [128]                         
 21                  -1  1    147712  ultralytics.nn.modules.conv.Conv             [128, 128, 3, 2]              
 22             [-1, 9]  1         0  ultralytics.nn.modules.conv.Concat           [1]                           
 23                  -1  1    555574  ultralytics.nn.modules.block.C2f_DCN         [384, 256, 1]                 
 24        [16, 20, 23]  1    897664  ultralytics.nn.modules.head.Detect           [80, [64, 128, 256]]          
3cbam_dcnv2 summary: 241 layers, 3483120 parameters, 3483104 gradients

New https://pypi.org/project/ultralytics/8.0.195 available 😃 Update with 'pip install -U ultralytics'
Ultralytics YOLOv8.0.188 🚀 Python-3.8.16 torch-1.10.1+cu111 CUDA:0 (Tesla V100S-PCIE-32GB, 32501MiB)
WARNING ⚠️ Upgrade to torch>=2.0.0 for deterministic training.
[34m[1mengine/trainer: [0mtas
…
=7.5, cls=0.5, dfl=1.5, pose=12.0, kobj=1.0, label_smoothing=0.0, nbs=64, hsv_h=0.015, hsv_s=0.7, hsv_v=0.4, degrees=0.0, translate=0.1, scale=0.5, shear=0.0, perspective=0.0, flipud=0.0, fliplr=0.5, mosaic=1.0, mixup=0.0, copy_paste=0.0, cfg=None, tracker=botsort.yaml, save_dir=/public/home/wangyuanhao/rolled/ultralytics/runs/detect/train3
Overriding model.yaml nc=80 with nc=2
WARNING ⚠️ no model scale passed. Assuming scale='n'.

                   from  n    params  module                                       arguments                     
  0                  -1  1       464  ultralytics.nn.modules.conv.Conv             [3, 16, 3, 2]                 
  1                  -1  1      4672  ultralytics.nn.modules.conv.Conv             [16, 32, 3, 2]                
  2                  -1  1     15222  ultralytics.nn.modules.block.C2f_DCN         [32, 32, 1, True]             
  3                  -1  1     18560  ultralytics.nn.modules.conv.Conv             [32, 64, 3, 2]                
  4                  -1  2     81004  ultralytics.nn.modules.block.C2f_DCN         [64, 64, 2, True]             
  5                  -1  1     73984  ultralytics.nn.modules.conv.Conv             [64, 128, 3, 2]               
  6                  -1  2    260204  ultralytics.nn.modules.block.C2f_DCN         [128, 128, 2, True]           
  7                  -1  1    295424  ultralytics.nn.modules.conv.Conv             [128, 256, 3, 2]              
  8                  -1  1    522806  ultralytics.nn.modules.block.C2f_DCN         [256, 256, 1, True]           
  9                  -1  1    164608  ultralytics.nn.modules.block.SPPF            [256, 256, 5]                 
 10                  -1  1         0  torch.nn.modules.upsampling.Upsample         [None, 2, 'nearest']          
 11             [-1, 6]  1         0  ultralytics.nn.modules.conv.Concat           [1]                           
 12                  -1  1    179510  ultralytics.nn.modules.block.C2f_DCN         [384, 128, 1]                 
 13                  -1  1         0  torch.nn.modules.upsampling.Upsample         [None, 2, 'nearest']          
 14             [-1, 4]  1         0  ultralytics.nn.modules.conv.Concat           [1]                           
 15                  -1  1     52918  ultralytics.nn.modules.block.C2f_DCN         [192, 64, 1]                  
 16                  -1  1      4258  ultralytics.nn.modules.conv.CBAM             [64]                          
 17                  -1  1     36992  ultralytics.nn.modules.conv.Conv             [64, 64, 3, 2]                
 18            [-1, 12]  1         0  ultralytics.nn.modules.conv.Concat           [1]                           
 19                  -1  1    154934  ultralytics.nn.modules.block.C2f_DCN         [192, 128, 1]                 
 20                  -1  1     16610  ultralytics.nn.modules.conv.CBAM             [128]                         
 21                  -1  1    147712  ultralytics.nn.modules.conv.Conv             [128, 128, 3, 2]              
 22             [-1, 9]  1         0  ultralytics.nn.modules.conv.Concat           [1]                           
 23                  -1  1    555574  ultralytics.nn.modules.block.C2f_DCN         [384, 256, 1]                 
 24        [16, 20, 23]  1    751702  ultralytics.nn.modules.head.Detect           [2, [64, 128, 256]]           
3cbam_dcnv2 summary: 241 layers, 3337158 parameters, 3337142 gradients

[34m[1mTensorBoard: [0mStart with 'tensorboard --logdir /public/home/wangyuanhao/rolled/ultralytics/runs/detect/train3', view at http://localhost:6006/
Freezing layer 'model.24.dfl.conv.weight'
[34m[1mAMP: [0mrunning Automatic Mixed Precision (AMP) checks with YOLOv8n...
[34m[1mAMP: [0mchecks passed ✅
…
