…
training args are: Namespace(batch_size=16, bs_per_gpu=32, cache_ram=False, calib=False, check_images=False, check_labels=False, conf_file='./configs/yolov6n.py', data_path='./data/dataset.yaml', device='0', dist_url='env://', distill=False, distill_feat=False, epochs=150, eval_final_only=False, eval_interval=20, fuse_ab=False, gpu_count=0, heavy_eval_range=50, height=None, img_size=640, local_rank=-1, name='exp', output_dir='./runs/train', quant=False, rank=-1, rect=False, resume=False, save_ckpt_on_last_n_epoch=-1, save_dir='runs/train/exp3', specific_shape=False, stop_aug_last_n_epoch=15, teacher_model_path=None, temperature=20, width=None, workers=8, world_size=1, write_trainbatch_tb=False)

Model: Model(
  (backbone): EfficientRep(
    (stem): RepVGGBlock(
      (nonlinearity): ReLU(inplace=True)
      (se): Identity()
      (rbr_dense): ConvModule(
        (conv): Conv2d(3, 16, kernel_size=(3, 3), stride=(2, 2), padding=(1, 1), bias=False)
        (bn): BatchNorm2d(16, eps=0.001, momentum=0.03, affine=True, track_running_stats=True)
      )
      (rbr_1x1): ConvModule(
        (conv): Conv2d(3, 16, kernel_size=(1, 1), stride=(2, 2), bias=False)
        (bn): BatchNorm2d(16, eps=0.001, momentum=0.03, affine=True, track_running_stats=True)
      )
    )
    (ERBlock_2): Sequential(
      (0): RepVGGBlock(
        (nonlinearity): ReLU(inplace=True)
        (se): Identity()
        (rbr_dense): ConvModule(
          (conv): Conv2d(16, 32, kernel_size=(3, 3), stride=(2, 2), padding=(1, 1), bias=False)
          (bn): BatchNorm2d(32, eps=0.001, momentum=0.03, affine=True, track_running_stats=True)
        )
        (rbr_1x1): ConvModule(
          (conv): Conv2d(16, 32, kernel_size=(1, 1), stride=(2, 2), bias=False)
          (bn): BatchNorm2d(32, eps=0.001, momentum=0.03, affine=True, track_running_stats=True)
        )
      )
      (1): RepBlock(
        (conv1): RepVGGBlock(
          (nonlinearity): ReLU(inplace=True)
          (se): Identity()
          (rbr_identity): BatchNorm2d(32, eps=0.001, momentum=0.03, affine=True, track_running_stats=True)
          (rbr_dense): ConvModule(
            (conv): Conv2d(32, 32, kernel_size=(3, 3), stride=(1, 1), padding=(1, 1), bias=False)
            (bn): BatchNorm2d(32, eps=0.001, momentum=0.03, affine=True, track_running_stats=True)
          )
          (rbr_1x1): ConvModule(
            (conv): Conv2d(32, 32, kernel_size=(1, 1), stride=(1, 1), bias=False)
            (bn): BatchNorm2d(32, eps=0.001, momentum=0.03, affine=True, track_running_stats=True)
          )
        )
        (block): Sequential(
          (0): RepVGGBlock(
            (nonlinearity): ReLU(inplace=True)
            (se): Identity()
            (rbr_identity): BatchNorm2d(32, eps=0.001, momentum=0.03, affine=True, track_running_stats=True)
            (rbr_dense): ConvModule(
              (conv): Conv2d(32, 32, kernel_size=(3, 3), stride=(1, 1), padding=(1, 1), bias=False)
              (bn): BatchNorm2d(32, eps=0.001, momentum=0.03, affine=True, track_running_stats=True)
            )
            (rbr_1x1): ConvModule(
              (conv): Conv2d(32, 32, kernel_size=(1, 1), stride=(1, 1), bias=False)
              (bn): BatchNorm2d(32, eps=0.001, momentum=0.03, affine=True, track_running_stats=True)
            )
          )
        )
      )
    )
    (ERBlock_3): Sequential(
      (0): RepVGGBlock(
        (nonlinearity): ReLU(inplace=True)
        (se): Identity()
        (rbr_dense): ConvModule(
          (conv): Conv2d(32, 64, kernel_size=(3, 3), stride=(2, 2), padding=(1, 1), bias=False)
          (bn): BatchNorm2d(64, eps=0.001, momentum=0.03, affine=True, track_running_stats=True)
        )
        (rbr_1x1): ConvModule(
          (conv): Conv2d(32, 64, kernel_size=(1, 1), stride=(2, 2), bias=False)
          (bn): BatchNorm2d(64, eps=0.001, momentum=0.03, affine=True, track_running_stats=True)
        )
      )
      (1): RepBlock(
        (conv1): RepVGGBlock(
          (nonlinearity): ReLU(inplace=True)
          (se): Identity()
          (rbr_identity): BatchNorm2d(64, eps=0.001, momentum=0.03, affine=True, track_running_stats=True)
          (rbr_dense): ConvModule(
            (conv): Conv2d(64, 64, kernel_size=(3, 3), stride=(1, 1), padding=(1, 1), bias=False)
            (bn): BatchNorm2d(64, eps=0.001, momentum=0.03, affine=True, track_running_stats=True)
          )
          (rbr_1x1): ConvModule(
            (conv): Conv2d(64, 64, kernel_size=(1, 1), stride=(1, 1), bias=False)
            (bn): BatchNorm2d(64, eps=0.001, momentum=0.03, affine=True, track_running_stats=True)
          )
        )
        (block): Sequential(
          (0): RepVGGBlock(
            (nonlinearity): ReLU(inplace=True)
            (se): Identity()
            (rbr_identity): BatchNorm2d(64, eps=0.001, momentum=0.03, affine=True, track_running_stats=True)
            (rbr_dense): ConvModule(
              (conv): Conv2d(64, 64, kernel_size=(3, 3), stride=(1, 1), padding=(1, 1), bias=False)
              (bn): BatchNorm2d(64, eps=0.001, momentum=0.03, affine=True, track_running_stats=True)
            )
            (rbr_1x1): ConvModule(
              (conv): Conv2d(64, 64, kernel_size=(1, 1), stride=(1, 1), bias=False)
              (bn): BatchNorm2d(64, eps=0.001, momentum=0.03, affine=True, track_running_stats=True)
            )
          )
          (1): RepVGGBlock(
            (nonlinearity): ReLU(inplace=True)
            (se): Identity()
            (rbr_identity): BatchNorm2d(64, eps=0.001, momentum=0.03, affine=True, track_running_stats=True)
            (rbr_dense): ConvModule(
              (conv): Conv2d(64, 64, kernel_size=(3, 3), stride=(1, 1), padding=(1, 1), bias=False)
              (bn): BatchNorm2d(64, eps=0.001, momentum=0.03, affine=True, track_running_stats=True)
            )
            (rbr_1x1): ConvModule(
              (conv): Conv2d(64, 64, kernel_size=(1, 1), stride=(1, 1), bias=False)
              (bn): BatchNorm2d(64, eps=0.001, momentum=0.03, affine=True, track_running_stats=True)
            )
          )
          (2): RepVGGBlock(
            (nonlinearity): ReLU(inplace=True)
            (se): Identity()
            (rbr_identity): BatchNorm2d(64, eps=0.001, momentum=0.03, affine=True, track_running_stats=True)
            (rbr_dense): ConvModule(
              (conv): Conv2d(64, 64, kernel_size=(3, 3), stride=(1, 1), padding=(1, 1), bias=False)
              (bn): BatchNorm2d(64, eps=0.001, momentum=0.03, affine=True, track_running_stats=True)
            )
            (rbr_1x1): ConvModule(
              (conv): Conv2d(64, 64, kernel_size=(1, 1), stride=(1, 1), bias=False)
              (bn): BatchNorm2d(64, eps=0.001, momentum=0.03, affine=True, track_running_stats=True)
            )
          )
        )
      )
    )
    (ERBlock_4): Sequential(
      (0): RepVGGBlock(
        (nonlinearity): ReLU(inplace=True)
        (se): Identity()
        (rbr_dense): ConvModule(
          (conv): Conv2d(64, 128, kernel_size=(3, 3), stride=(2, 2), padding=(1, 1), bias=False)
          (bn): BatchNorm2d(128, eps=0.001, momentum=0.03, affine=True, track_running_stats=True)
        )
        (rbr_1x1): ConvModule(
          (conv): Conv2d(64, 128, kernel_size=(1, 1), stride=(2, 2), bias=False)
          (bn): BatchNorm2d(128, eps=0.001, momentum=0.03, affine=True, track_running_stats=True)
        )
      )
      (1): RepBlock(
        (conv1): RepVGGBlock(
          (nonlinearity): ReLU(inplace=True)
          (se): Identity()
          (rbr_identity): BatchNorm2d(128, eps=0.001, momentum=0.03, affine=True, track_running_stats=True)
          (rbr_dense): ConvModule(
            (conv): Conv2d(128, 128, kernel_size=(3, 3), stride=(1, 1), padding=(1, 1), bias=False)
            (bn): BatchNorm2d(128, eps=0.001, momentum=0.03, affine=True, track_running_stats=True)
          )
          (rbr_1x1): ConvModule(
            (conv): Conv2d(128, 128, kernel_size=(1, 1), stride=(1, 1), bias=False)
            (bn): BatchNorm2d(128, eps=0.001, momentum=0.03, affine=True, track_running_stats=True)
          )
        )
        (block): Sequential(
          (0): RepVGGBlock(
            (nonlinearity): ReLU(inplace=True)
            (se): Identity()
            (rbr_identity): BatchNorm2d(128, eps=0.001, momentum=0.03, affine=True, track_running_stats=True)
            (rbr_dense): ConvModule(
              (conv): Conv2d(128, 128, kernel_size=(3, 3), stride=(1, 1), padding=(1, 1), bias=False)
              (bn): BatchNorm2d(128, eps=0.001, momentum=0.03, affine=True, track_running_stats=True)
            )
            (rbr_1x1): ConvModule(
              (conv): Conv2d(128, 128, kernel_size=(1, 1), stride=(1, 1), bias=False)
              (bn): BatchNorm2d(128, eps=0.001, momentum=0.03, affine=True, track_running_stats=True)
            )
          )
          (1): RepVGGBlock(
            (nonlinearity): ReLU(inplace=True)
            (se): Identity()
            (rbr_identity): BatchNorm2d(128, eps=0.001, momentum=0.03, affine=True, track_running_stats=True)
            (rbr_dense): ConvModule(
              (conv): Conv2d(128, 128, kernel_size=(3, 3), stride=(1, 1), padding=(1, 1), bias=False)
              (bn): BatchNorm2d(128, eps=0.001, momentum=0.03, affine=True, track_running_stats=True)
            )
            (rbr_1x1): ConvModule(
              (conv): Conv2d(128, 128, kernel_size=(1, 1), stride=(1, 1), bias=False)
              (bn): BatchNorm2d(128, eps=0.001, momentum=0.03, affine=True, track_running_stats=True)
            )
          )
          (2): RepVGGBlock(
            (nonlinearity): ReLU(inplace=True)
            (se): Identity()
            (rbr_identity): BatchNorm2d(128, eps=0.001, momentum=0.03, affine=True, track_running_stats=True)
            (rbr_dense): ConvModule(
              (conv): Conv2d(128, 128, kernel_size=(3, 3), stride=(1, 1), padding=(1, 1), bias=False)
              (bn): BatchNorm2d(128, eps=0.001, momentum=0.03, affine=True, track_running_stats=True)
            )
            (rbr_1x1): ConvModule(
              (conv): Conv2d(128, 128, kernel_size=(1, 1), stride=(1, 1), bias=False)
              (bn): BatchNorm2d(128, eps=0.001, momentum=0.03, affine=True, track_running_stats=True)
            )
          )
          (3): RepVGGBlock(
            (nonlinearity): ReLU(inplace=True)
            (se): Identity()
            (rbr_identity): BatchNorm2d(128, eps=0.001, momentum=0.03, affine=True, track_running_stats=True)
            (rbr_dense): ConvModule(
              (conv): Conv2d(128, 128, kernel_size=(3, 3), stride=(1, 1), padding=(1, 1), bias=False)
              (bn): BatchNorm2d(128, eps=0.001, momentum=0.03, affine=True, track_running_stats=True)
            )
            (rbr_1x1): ConvModule(
              (conv): Conv2d(128, 128, kernel_size=(1, 1), stride=(1, 1), bias=False)
              (bn): BatchNorm2d(128, eps=0.001, momentum=0.03, affine=True, track_running_stats=True)
            )
          )
          (4): RepVGGBlock(
            (nonlinearity): ReLU(inplace=True)
            (se): Identity()
            (rbr_identity): BatchNorm2d(128, eps=0.001, momentum=0.03, affine=True, track_running_stats=True)
            (rbr_dense): ConvModule(
              (conv): Conv2d(128, 128, kernel_size=(3, 3), stride=(1, 1), padding=(1, 1), bias=False)
              (bn): BatchNorm2d(128, eps=0.001, momentum=0.03, affine=True, track_running_stats=True)
            )
            (rbr_1x1): ConvModule(
              (conv): Conv2d(128, 128, kernel_size=(1, 1), stride=(1, 1), bias=False)
              (bn): BatchNorm2d(128, eps=0.001, momentum=0.03, affine=True, track_running_stats=True)
            )
          )
        )
      )
    )
    (ERBlock_5): Sequential(
      (0): RepVGGBlock(
        (nonlinearity): ReLU(inplace=True)
        (se): Identity()
        (rbr_dense): ConvModule(
          (conv): Conv2d(128, 256, kernel_size=(3, 3), stride=(2, 2), padding=(1, 1), bias=False)
          (bn): BatchNorm2d(256, eps=0.001, momentum=0.03, affine=True, track_running_stats=True)
        )
        (rbr_1x1): ConvModule(
          (conv): Conv2d(128, 256, kernel_size=(1, 1), stride=(2, 2), bias=False)
          (bn): BatchNorm2d(256, eps=0.001, momentum=0.03, affine=True, track_running_stats=True)
        )
      )
      (1): RepBlock(
        (conv1): RepVGGBlock(
          (nonlinearity): ReLU(inplace=True)
          (se): Identity()
          (rbr_identity): BatchNorm2d(256, eps=0.001, momentum=0.03, affine=True, track_running_stats=True)
          (rbr_dense): ConvModule(
            (conv): Conv2d(256, 256, kernel_size=(3, 3), stride=(1, 1), padding=(1, 1), bias=False)
            (bn): BatchNorm2d(256, eps=0.001, momentum=0.03, affine=True, track_running_stats=True)
          )
          (rbr_1x1): ConvModule(
            (conv): Conv2d(256, 256, kernel_size=(1, 1), stride=(1, 1), bias=False)
            (bn): BatchNorm2d(256, eps=0.001, momentum=0.03, affine=True, track_running_stats=True)
          )
        )
        (block): Sequential(
          (0): RepVGGBlock(
            (nonlinearity): ReLU(inplace=True)
            (se): Identity()
            (rbr_identity): BatchNorm2d(256, eps=0.001, momentum=0.03, affine=True, track_running_stats=True)
            (rbr_dense): ConvModule(
              (conv): Conv2d(256, 256, kernel_size=(3, 3), stride=(1, 1), padding=(1, 1), bias=False)
              (bn): BatchNorm2d(256, eps=0.001, momentum=0.03, affine=True, track_running_stats=True)
            )
            (rbr_1x1): ConvModule(
              (conv): Conv2d(256, 256, kernel_size=(1, 1), stride=(1, 1), bias=False)
              (bn): BatchNorm2d(256, eps=0.001, momentum=0.03, affine=True, track_running_stats=True)
            )
          )
        )
      )
      (2): SimCSPSPPF(
        (cspsppf): CSPSPPFModule(
          (cv1): ConvBNReLU(
            (block): ConvModule(
              (conv): Conv2d(256, 128, kernel_size=(1, 1), stride=(1, 1), bias=False)
              (bn): BatchNorm2d(128, eps=0.001, momentum=0.03, affine=True, track_running_stats=True)
              (act): ReLU(inplace=True)
            )
          )
          (cv2): ConvBNReLU(
            (block): ConvModule(
              (conv): Conv2d(256, 128, kernel_size=(1, 1), stride=(1, 1), bias=False)
              (bn): BatchNorm2d(128, eps=0.001, momentum=0.03, affine=True, track_running_stats=True)
              (act): ReLU(inplace=True)
            )
          )
          (cv3): ConvBNReLU(
            (block): ConvModule(
              (conv): Conv2d(128, 128, kernel_size=(3, 3), stride=(1, 1), padding=(1, 1), bias=False)
              (bn): BatchNorm2d(128, eps=0.001, momentum=0.03, affine=True, track_running_stats=True)
              (act): ReLU(inplace=True)
            )
          )
          (cv4): ConvBNReLU(
            (block): ConvModule(
              (conv): Conv2d(128, 128, kernel_size=(1, 1), stride=(1, 1), bias=False)
              (bn): BatchNorm2d(128, eps=0.001, momentum=0.03, affine=True, track_running_stats=True)
              (act): ReLU(inplace=True)
            )
          )
          (m): MaxPool2d(kernel_size=5, stride=1, padding=2, dilation=1, ceil_mode=False)
          (cv5): ConvBNReLU(
            (block): ConvModule(
              (conv): Conv2d(512, 128, kernel_size=(1, 1), stride=(1, 1), bias=False)
              (bn): BatchNorm2d(128, eps=0.001, momentum=0.03, affine=True, track_running_stats=True)
              (act): ReLU(inplace=True)
            )
          )
          (cv6): ConvBNReLU(
            (block): ConvModule(
              (conv): Conv2d(128, 128, kernel_size=(3, 3), stride=(1, 1), padding=(1, 1), bias=False)
              (bn): BatchNorm2d(128, eps=0.001, momentum=0.03, affine=True, track_running_stats=True)
              (act): ReLU(inplace=True)
            )
          )
          (cv7): ConvBNReLU(
            (block): ConvModule(
              (conv): Conv2d(256, 256, kernel_size=(1, 1), stride=(1, 1), bias=False)
              (bn): BatchNorm2d(256, eps=0.001, momentum=0.03, affine=True, track_running_stats=True)
              (act): ReLU(inplace=True)
            )
          )
        )
      )
    )
  )
  (neck): RepBiFPANNeck(
    (reduce_layer0): ConvBNReLU(
      (block): ConvModule(
        (conv): Conv2d(256, 64, kernel_size=(1, 1), stride=(1, 1), bias=False)
        (bn): BatchNorm2d(64, eps=0.001, momentum=0.03, affine=True, track_running_stats=True)
        (act): ReLU(inplace=True)
      )
    )
    (Bifusion0): BiFusion(
      (cv1): ConvBNReLU(
        (block): ConvModule(
          (conv): Conv2d(128, 64, kernel_size=(1, 1), stride=(1, 1), bias=False)
          (bn): BatchNorm2d(64, eps=0.001, momentum=0.03, affine=True, track_running_stats=True)
          (act): ReLU(inplace=True)
        )
      )
      (cv2): ConvBNReLU(
        (block): ConvModule(
          (conv): Conv2d(64, 64, kernel_size=(1, 1), stride=(1, 1), bias=False)
          (bn): BatchNorm2d(64, eps=0.001, momentum=0.03, affine=True, track_running_stats=True)
          (act): ReLU(inplace=True)
        )
      )
      (cv3): ConvBNReLU(
        (block): ConvModule(
          (conv): Conv2d(192, 64, kernel_size=(1, 1), stride=(1, 1), bias=False)
          (bn): BatchNorm2d(64, eps=0.001, momentum=0.03, affine=True, track_running_stats=True)
          (act): ReLU(inplace=True)
        )
      )
      (upsample): Transpose(
        (upsample_transpose): ConvTranspose2d(64, 64, kernel_size=(2, 2), stride=(2, 2))
      )
      (downsample): ConvBNReLU(
        (block): ConvModule(
          (conv): Conv2d(64, 64, kernel_size=(3, 3), stride=(2, 2), padding=(1, 1), bias=False)
          (bn): BatchNorm2d(64, eps=0.001, momentum=0.03, affine=True, track_running_stats=True)
          (act): ReLU(inplace=True)
        )
      )
    )
    (Rep_p4): RepBlock(
      (conv1): RepVGGBlock(
        (nonlinearity): ReLU(inplace=True)
        (se): Identity()
        (rbr_identity): BatchNorm2d(64, eps=0.001, momentum=0.03, affine=True, track_running_stats=True)
        (rbr_dense): ConvModule(
          (conv): Conv2d(64, 64, kernel_size=(3, 3), stride=(1, 1), padding=(1, 1), bias=False)
          (bn): BatchNorm2d(64, eps=0.001, momentum=0.03, affine=True, track_running_stats=True)
        )
        (rbr_1x1): ConvModule(
          (conv): Conv2d(64, 64, kernel_size=(1, 1), stride=(1, 1), bias=False)
          (bn): BatchNorm2d(64, eps=0.001, momentum=0.03, affine=True, track_running_stats=True)
        )
      )
      (block): Sequential(
        (0): RepVGGBlock(
          (nonlinearity): ReLU(inplace=True)
          (se): Identity()
          (rbr_identity): BatchNorm2d(64, eps=0.001, momentum=0.03, affine=True, track_running_stats=True)
          (rbr_dense): ConvModule(
            (conv): Conv2d(64, 64, kernel_size=(3, 3), stride=(1, 1), padding=(1, 1), bias=False)
            (bn): BatchNorm2d(64, eps=0.001, momentum=0.03, affine=True, track_running_stats=True)
          )
          (rbr_1x1): ConvModule(
            (conv): Conv2d(64, 64, kernel_size=(1, 1), stride=(1, 1), bias=False)
            (bn): BatchNorm2d(64, eps=0.001, momentum=0.03, affine=True, track_running_stats=True)
          )
        )
        (1): RepVGGBlock(
          (nonlinearity): ReLU(inplace=True)
          (se): Identity()
          (rbr_identity): BatchNorm2d(64, eps=0.001, momentum=0.03, affine=True, track_running_stats=True)
          (rbr_dense): ConvModule(
            (conv): Conv2d(64, 64, kernel_size=(3, 3), stride=(1, 1), padding=(1, 1), bias=False)
            (bn): BatchNorm2d(64, eps=0.001, momentum=0.03, affine=True, track_running_stats=True)
          )
          (rbr_1x1): ConvModule(
            (conv): Conv2d(64, 64, kernel_size=(1, 1), stride=(1, 1), bias=False)
            (bn): BatchNorm2d(64, eps=0.001, momentum=0.03, affine=True, track_running_stats=True)
          )
        )
        (2): RepVGGBlock(
          (nonlinearity): ReLU(inplace=True)
          (se): Identity()
          (rbr_identity): BatchNorm2d(64, eps=0.001, momentum=0.03, affine=True, track_running_stats=True)
          (rbr_dense): ConvModule(
            (conv): Conv2d(64, 64, kernel_size=(3, 3), stride=(1, 1), padding=(1, 1), bias=False)
            (bn): BatchNorm2d(64, eps=0.001, momentum=0.03, affine=True, track_running_stats=True)
          )
          (rbr_1x1): ConvModule(
            (conv): Conv2d(64, 64, kernel_size=(1, 1), stride=(1, 1), bias=False)
            (bn): BatchNorm2d(64, eps=0.001, momentum=0.03, affine=True, track_running_stats=True)
          )
        )
      )
    )
    (reduce_layer1): ConvBNReLU(
      (block): ConvModule(
        (conv): Conv2d(64, 32, kernel_size=(1, 1), stride=(1, 1), bias=False)
        (bn): BatchNorm2d(32, eps=0.001, momentum=0.03, affine=True, track_running_stats=True)
        (act): ReLU(inplace=True)
      )
    )
    (Bifusion1): BiFusion(
      (cv1): ConvBNReLU(
        (block): ConvModule(
          (conv): Conv2d(64, 32, kernel_size=(1, 1), stride=(1, 1), bias=False)
          (bn): BatchNorm2d(32, eps=0.001, momentum=0.03, affine=True, track_running_stats=True)
          (act): ReLU(inplace=True)
        )
      )
      (cv2): ConvBNReLU(
        (block): ConvModule(
          (conv): Conv2d(32, 32, kernel_size=(1, 1), stride=(1, 1), bias=False)
          (bn): BatchNorm2d(32, eps=0.001, momentum=0.03, affine=True, track_running_stats=True)
          (act): ReLU(inplace=True)
        )
      )
      (cv3): ConvBNReLU(
        (block): ConvModule(
          (conv): Conv2d(96, 32, kernel_size=(1, 1), stride=(1, 1), bias=False)
          (bn): BatchNorm2d(32, eps=0.001, momentum=0.03, affine=True, track_running_stats=True)
          (act): ReLU(inplace=True)
        )
      )
      (upsample): Transpose(
        (upsample_transpose): ConvTranspose2d(32, 32, kernel_size=(2, 2), stride=(2, 2))
      )
      (downsample): ConvBNReLU(
        (block): ConvModule(
          (conv): Conv2d(32, 32, kernel_size=(3, 3), stride=(2, 2), padding=(1, 1), bias=False)
          (bn): BatchNorm2d(32, eps=0.001, momentum=0.03, affine=True, track_running_stats=True)
          (act): ReLU(inplace=True)
        )
      )
    )
    (Rep_p3): RepBlock(
      (conv1): RepVGGBlock(
        (nonlinearity): ReLU(inplace=True)
        (se): Identity()
        (rbr_identity): BatchNorm2d(32, eps=0.001, momentum=0.03, affine=True, track_running_stats=True)
        (rbr_dense): ConvModule(
          (conv): Conv2d(32, 32, kernel_size=(3, 3), stride=(1, 1), padding=(1, 1), bias=False)
          (bn): BatchNorm2d(32, eps=0.001, momentum=0.03, affine=True, track_running_stats=True)
        )
        (rbr_1x1): ConvModule(
          (conv): Conv2d(32, 32, kernel_size=(1, 1), stride=(1, 1), bias=False)
          (bn): BatchNorm2d(32, eps=0.001, momentum=0.03, affine=True, track_running_stats=True)
        )
      )
      (block): Sequential(
        (0): RepVGGBlock(
          (nonlinearity): ReLU(inplace=True)
          (se): Identity()
          (rbr_identity): BatchNorm2d(32, eps=0.001, momentum=0.03, affine=True, track_running_stats=True)
          (rbr_dense): ConvModule(
            (conv): Conv2d(32, 32, kernel_size=(3, 3), stride=(1, 1), padding=(1, 1), bias=False)
            (bn): BatchNorm2d(32, eps=0.001, momentum=0.03, affine=True, track_running_stats=True)
          )
          (rbr_1x1): ConvModule(
            (conv): Conv2d(32, 32, kernel_size=(1, 1), stride=(1, 1), bias=False)
            (bn): BatchNorm2d(32, eps=0.001, momentum=0.03, affine=True, track_running_stats=True)
          )
        )
        (1): RepVGGBlock(
          (nonlinearity): ReLU(inplace=True)
          (se): Identity()
          (rbr_identity): BatchNorm2d(32, eps=0.001, momentum=0.03, affine=True, track_running_stats=True)
          (rbr_dense): ConvModule(
            (conv): Conv2d(32, 32, kernel_size=(3, 3), stride=(1, 1), padding=(1, 1), bias=False)
            (bn): BatchNorm2d(32, eps=0.001, momentum=0.03, affine=True, track_running_stats=True)
          )
          (rbr_1x1): ConvModule(
            (conv): Conv2d(32, 32, kernel_size=(1, 1), stride=(1, 1), bias=False)
            (bn): BatchNorm2d(32, eps=0.001, momentum=0.03, affine=True, track_running_stats=True)
          )
        )
        (2): RepVGGBlock(
          (nonlinearity): ReLU(inplace=True)
          (se): Identity()
          (rbr_identity): BatchNorm2d(32, eps=0.001, momentum=0.03, affine=True, track_running_stats=True)
          (rbr_dense): ConvModule(
            (conv): Conv2d(32, 32, kernel_size=(3, 3), stride=(1, 1), padding=(1, 1), bias=False)
            (bn): BatchNorm2d(32, eps=0.001, momentum=0.03, affine=True, track_running_stats=True)
          )
          (rbr_1x1): ConvModule(
            (conv): Conv2d(32, 32, kernel_size=(1, 1), stride=(1, 1), bias=False)
            (bn): BatchNorm2d(32, eps=0.001, momentum=0.03, affine=True, track_running_stats=True)
          )
        )
      )
    )
    (downsample2): ConvBNReLU(
      (block): ConvModule(
        (conv): Conv2d(32, 32, kernel_size=(3, 3), stride=(2, 2), padding=(1, 1), bias=False)
        (bn): BatchNorm2d(32, eps=0.001, momentum=0.03, affine=True, track_running_stats=True)
        (act): ReLU(inplace=True)
      )
    )
    (Rep_n3): RepBlock(
      (conv1): RepVGGBlock(
        (nonlinearity): ReLU(inplace=True)
        (se): Identity()
        (rbr_identity): BatchNorm2d(64, eps=0.001, momentum=0.03, affine=True, track_running_stats=True)
        (rbr_dense): ConvModule(
          (conv): Conv2d(64, 64, kernel_size=(3, 3), stride=(1, 1), padding=(1, 1), bias=False)
          (bn): BatchNorm2d(64, eps=0.001, momentum=0.03, affine=True, track_running_stats=True)
        )
        (rbr_1x1): ConvModule(
          (conv): Conv2d(64, 64, kernel_size=(1, 1), stride=(1, 1), bias=False)
          (bn): BatchNorm2d(64, eps=0.001, momentum=0.03, affine=True, track_running_stats=True)
        )
      )
      (block): Sequential(
        (0): RepVGGBlock(
          (nonlinearity): ReLU(inplace=True)
          (se): Identity()
          (rbr_identity): BatchNorm2d(64, eps=0.001, momentum=0.03, affine=True, track_running_stats=True)
          (rbr_dense): ConvModule(
            (conv): Conv2d(64, 64, kernel_size=(3, 3), stride=(1, 1), padding=(1, 1), bias=False)
            (bn): BatchNorm2d(64, eps=0.001, momentum=0.03, affine=True, track_running_stats=True)
          )
          (rbr_1x1): ConvModule(
            (conv): Conv2d(64, 64, kernel_size=(1, 1), stride=(1, 1), bias=False)
            (bn): BatchNorm2d(64, eps=0.001, momentum=0.03, affine=True, track_running_stats=True)
          )
        )
        (1): RepVGGBlock(
          (nonlinearity): ReLU(inplace=True)
          (se): Identity()
          (rbr_identity): BatchNorm2d(64, eps=0.001, momentum=0.03, affine=True, track_running_stats=True)
          (rbr_dense): ConvModule(
            (conv): Conv2d(64, 64, kernel_size=(3, 3), stride=(1, 1), padding=(1, 1), bias=False)
            (bn): BatchNorm2d(64, eps=0.001, momentum=0.03, affine=True, track_running_stats=True)
          )
          (rbr_1x1): ConvModule(
            (conv): Conv2d(64, 64, kernel_size=(1, 1), stride=(1, 1), bias=False)
            (bn): BatchNorm2d(64, eps=0.001, momentum=0.03, affine=True, track_running_stats=True)
          )
        )
        (2): RepVGGBlock(
          (nonlinearity): ReLU(inplace=True)
          (se): Identity()
          (rbr_identity): BatchNorm2d(64, eps=0.001, momentum=0.03, affine=True, track_running_stats=True)
          (rbr_dense): ConvModule(
            (conv): Conv2d(64, 64, kernel_size=(3, 3), stride=(1, 1), padding=(1, 1), bias=False)
            (bn): BatchNorm2d(64, eps=0.001, momentum=0.03, affine=True, track_running_stats=True)
          )
          (rbr_1x1): ConvModule(
            (conv): Conv2d(64, 64, kernel_size=(1, 1), stride=(1, 1), bias=False)
            (bn): BatchNorm2d(64, eps=0.001, momentum=0.03, affine=True, track_running_stats=True)
          )
        )
      )
    )
    (downsample1): ConvBNReLU(
      (block): ConvModule(
        (conv): Conv2d(64, 64, kernel_size=(3, 3), stride=(2, 2), padding=(1, 1), bias=False)
        (bn): BatchNorm2d(64, eps=0.001, momentum=0.03, affine=True, track_running_stats=True)
        (act): ReLU(inplace=True)
      )
    )
    (Rep_n4): RepBlock(
      (conv1): RepVGGBlock(
        (nonlinearity): ReLU(inplace=True)
        (se): Identity()
        (rbr_identity): BatchNorm2d(128, eps=0.001, momentum=0.03, affine=True, track_running_stats=True)
        (rbr_dense): ConvModule(
          (conv): Conv2d(128, 128, kernel_size=(3, 3), stride=(1, 1), padding=(1, 1), bias=False)
          (bn): BatchNorm2d(128, eps=0.001, momentum=0.03, affine=True, track_running_stats=True)
        )
        (rbr_1x1): ConvModule(
          (conv): Conv2d(128, 128, kernel_size=(1, 1), stride=(1, 1), bias=False)
          (bn): BatchNorm2d(128, eps=0.001, momentum=0.03, affine=True, track_running_stats=True)
        )
      )
      (block): Sequential(
        (0): RepVGGBlock(
          (nonlinearity): ReLU(inplace=True)
          (se): Identity()
          (rbr_identity): BatchNorm2d(128, eps=0.001, momentum=0.03, affine=True, track_running_stats=True)
          (rbr_dense): ConvModule(
            (conv): Conv2d(128, 128, kernel_size=(3, 3), stride=(1, 1), padding=(1, 1), bias=False)
            (bn): BatchNorm2d(128, eps=0.001, momentum=0.03, affine=True, track_running_stats=True)
          )
          (rbr_1x1): ConvModule(
            (conv): Conv2d(128, 128, kernel_size=(1, 1), stride=(1, 1), bias=False)
            (bn): BatchNorm2d(128, eps=0.001, momentum=0.03, affine=True, track_running_stats=True)
          )
        )
        (1): RepVGGBlock(
          (nonlinearity): ReLU(inplace=True)
          (se): Identity()
          (rbr_identity): BatchNorm2d(128, eps=0.001, momentum=0.03, affine=True, track_running_stats=True)
          (rbr_dense): ConvModule(
            (conv): Conv2d(128, 128, kernel_size=(3, 3), stride=(1, 1), padding=(1, 1), bias=False)
            (bn): BatchNorm2d(128, eps=0.001, momentum=0.03, affine=True, track_running_stats=True)
          )
          (rbr_1x1): ConvModule(
            (conv): Conv2d(128, 128, kernel_size=(1, 1), stride=(1, 1), bias=False)
            (bn): BatchNorm2d(128, eps=0.001, momentum=0.03, affine=True, track_running_stats=True)
          )
        )
        (2): RepVGGBlock(
          (nonlinearity): ReLU(inplace=True)
          (se): Identity()
          (rbr_identity): BatchNorm2d(128, eps=0.001, momentum=0.03, affine=True, track_running_stats=True)
          (rbr_dense): ConvModule(
            (conv): Conv2d(128, 128, kernel_size=(3, 3), stride=(1, 1), padding=(1, 1), bias=False)
            (bn): BatchNorm2d(128, eps=0.001, momentum=0.03, affine=True, track_running_stats=True)
          )
          (rbr_1x1): ConvModule(
            (conv): Conv2d(128, 128, kernel_size=(1, 1), stride=(1, 1), bias=False)
            (bn): BatchNorm2d(128, eps=0.001, momentum=0.03, affine=True, track_running_stats=True)
          )
        )
      )
    )
  )
  (detect): Detect(
    (proj_conv): Conv2d(17, 1, kernel_size=(1, 1), stride=(1, 1), bias=False)
    (stems): ModuleList(
      (0): ConvBNSiLU(
        (block): ConvModule(
          (conv): Conv2d(32, 32, kernel_size=(1, 1), stride=(1, 1), bias=False)
          (bn): BatchNorm2d(32, eps=0.001, momentum=0.03, affine=True, track_running_stats=True)
          (act): SiLU(inplace=True)
        )
      )
      (1): ConvBNSiLU(
        (block): ConvModule(
          (conv): Conv2d(64, 64, kernel_size=(1, 1), stride=(1, 1), bias=False)
          (bn): BatchNorm2d(64, eps=0.001, momentum=0.03, affine=True, track_running_stats=True)
          (act): SiLU(inplace=True)
        )
      )
      (2): ConvBNSiLU(
        (block): ConvModule(
          (conv): Conv2d(128, 128, kernel_size=(1, 1), stride=(1, 1), bias=False)
          (bn): BatchNorm2d(128, eps=0.001, momentum=0.03, affine=True, track_running_stats=True)
          (act): SiLU(inplace=True)
        )
      )
    )
    (cls_convs): ModuleList(
      (0): ConvBNSiLU(
        (block): ConvModule(
          (conv): Conv2d(32, 32, kernel_size=(3, 3), stride=(1, 1), padding=(1, 1), bias=False)
          (bn): BatchNorm2d(32, eps=0.001, momentum=0.03, affine=True, track_running_stats=True)
          (act): SiLU(inplace=True)
        )
      )
      (1): ConvBNSiLU(
        (block): ConvModule(
          (conv): Conv2d(64, 64, kernel_size=(3, 3), stride=(1, 1), padding=(1, 1), bias=False)
          (bn): BatchNorm2d(64, eps=0.001, momentum=0.03, affine=True, track_running_stats=True)
          (act): SiLU(inplace=True)
        )
      )
      (2): ConvBNSiLU(
        (block): ConvModule(
          (conv): Conv2d(128, 128, kernel_size=(3, 3), stride=(1, 1), padding=(1, 1), bias=False)
          (bn): BatchNorm2d(128, eps=0.001, momentum=0.03, affine=True, track_running_stats=True)
          (act): SiLU(inplace=True)
        )
      )
    )
    (reg_convs): ModuleList(
      (0): ConvBNSiLU(
        (block): ConvModule(
          (conv): Conv2d(32, 32, kernel_size=(3, 3), stride=(1, 1), padding=(1, 1), bias=False)
          (bn): BatchNorm2d(32, eps=0.001, momentum=0.03, affine=True, track_running_stats=True)
          (act): SiLU(inplace=True)
        )
      )
      (1): ConvBNSiLU(
        (block): ConvModule(
          (conv): Conv2d(64, 64, kernel_size=(3, 3), stride=(1, 1), padding=(1, 1), bias=False)
          (bn): BatchNorm2d(64, eps=0.001, momentum=0.03, affine=True, track_running_stats=True)
          (act): SiLU(inplace=True)
        )
      )
      (2): ConvBNSiLU(
        (block): ConvModule(
          (conv): Conv2d(128, 128, kernel_size=(3, 3), stride=(1, 1), padding=(1, 1), bias=False)
          (bn): BatchNorm2d(128, eps=0.001, momentum=0.03, affine=True, track_running_stats=True)
          (act): SiLU(inplace=True)
        )
      )
    )
    (cls_preds): ModuleList(
      (0): Conv2d(32, 2, kernel_size=(1, 1), stride=(1, 1))
      (1): Conv2d(64, 2, kernel_size=(1, 1), stride=(1, 1))
      (2): Conv2d(128, 2, kernel_size=(1, 1), stride=(1, 1))
    )
    (reg_preds): ModuleList(
      (0): Conv2d(32, 4, kernel_size=(1, 1), stride=(1, 1))
      (1): Conv2d(64, 4, kernel_size=(1, 1), stride=(1, 1))
      (2): Conv2d(128, 4, kernel_size=(1, 1), stride=(1, 1))
    )
  )
)
img record infomation path is:./VOC/images/.train_cache.json
Train: Final numbers of valid images: 584/ labels: 584. 
0.4s for dataset initialization.
img record infomation path is:./VOC/images/.val_cache.json
Convert to COCO format
  0%|          | 0/70 [00:00<?, ?it/s]100%|██████████| 70/70 [00:00<00:00, 10388.92it/s]
Convert to COCO format finished. Resutls saved in ./VOC/annotations/instances_val.json
…
