/public/home/wangyuanhao/miniconda3/envs/frcnn/bin/python
----------------------------------------------------------------
        Layer (type)               Output Shape         Param #
================================================================
            Conv2d-1         [-1, 64, 300, 300]           1,792
              ReLU-2         [-1, 64, 300, 300]               0
            Conv2d-3         [-1, 64, 300, 300]          36,928
              ReLU-4         [-1, 64, 300, 300]               0
         MaxPool2d-5         [-1, 64, 150, 150]               0
            Conv2d-6        [-1, 128, 150, 150]          73,856
              ReLU-7        [-1, 128, 150, 150]               0
            Conv2d-8        [-1, 128, 150, 150]         147,584
              ReLU-9        [-1, 128, 150, 150]               0
        MaxPool2d-10          [-1, 128, 75, 75]               0
           Conv2d-11          [-1, 256, 75, 75]         295,168
             ReLU-12          [-1, 256, 75, 75]               0
           Conv2d-13          [-1, 256, 75, 75]         590,080
             ReLU-14          [-1, 256, 75, 75]               0
           Conv2d-15          [-1, 256, 75, 75]         590,080
             ReLU-16          [-1, 256, 75, 75]               0
        MaxPool2d-17          [-1, 256, 38, 38]               0
           Conv2d-18          [-1, 512, 38, 38]       1,180,160
             ReLU-19          [-1, 512, 38, 38]               0
           Conv2d-20          [-1, 512, 38, 38]       2,359,808
             ReLU-21          [-1, 512, 38, 38]               0
           Conv2d-22          [-1, 512, 38, 38]       2,359,808
             ReLU-23          [-1, 512, 38, 38]               0
           L2Norm-24          [-1, 512, 38, 38]             512
        MaxPool2d-25          [-1, 512, 19, 19]               0
           Conv2d-26          [-1, 512, 19, 19]       2,359,808
             ReLU-27          [-1, 512, 19, 19]               0
           Conv2d-28          [-1, 512, 19, 19]       2,359,808
             ReLU-29          [-1, 512, 19, 19]               0
           Conv2d-30          [-1, 512, 19, 19]       2,359,808
             ReLU-31          [-1, 512, 19, 19]               0
        MaxPool2d-32          [-1, 512, 19, 19]               0
           Conv2d-33         [-1, 1024, 19, 19]       4,719,616
             ReLU-34         [-1, 1024, 19, 19]               0
           Conv2d-35         [-1, 1024, 19, 19]       1,049,600
             ReLU-36         [-1, 1024, 19, 19]               0
           Conv2d-37          [-1, 256, 19, 19]         262,400
           Conv2d-38          [-1, 512, 10, 10]       1,180,160
           Conv2d-39          [-1, 128, 10, 10]          65,664
           Conv2d-40            [-1, 256, 5, 5]         295,168
           Conv2d-41            [-1, 128, 5, 5]          32,896
           Conv2d-42            [-1, 256, 3, 3]         295,168
           Conv2d-43            [-1, 128, 3, 3]          32,896
           Conv2d-44            [-1, 256, 1, 1]         295,168
           Conv2d-45           [-1, 16, 38, 38]          73,744
           Conv2d-46           [-1, 84, 38, 38]         387,156
           Conv2d-47           [-1, 24, 19, 19]         221,208
           Conv2d-48          [-1, 126, 19, 19]       1,161,342
           Conv2d-49           [-1, 24, 10, 10]         110,616
           Conv2d-50          [-1, 126, 10, 10]         580,734
           Conv2d-51             [-1, 24, 5, 5]          55,320
           Conv2d-52            [-1, 126, 5, 5]         290,430
           Conv2d-53             [-1, 16, 3, 3]          36,880
           Conv2d-54             [-1, 84, 3, 3]         193,620
           Conv2d-55             [-1, 16, 1, 1]          36,880
           Conv2d-56             [-1, 84, 1, 1]         193,620
================================================================
Total params: 26,285,486
Trainable params: 26,285,486
Non-trainable params: 0
----------------------------------------------------------------
Input size (MB): 1.03
Forward/backward pass size (MB): 413.90
Params size (MB): 100.27
Estimated Total Size (MB): 515.20
----------------------------------------------------------------
Total GFLOPS: 62.747G
…
