/public/home/wangyuanhao/miniconda3/envs/frcnn/bin/python
----------------------------------------------------------------
        Layer (type)               Output Shape         Param #
================================================================
            Conv2d-1         [-1, 64, 600, 600]           1,792
              ReLU-2         [-1, 64, 600, 600]               0
            Conv2d-3         [-1, 64, 600, 600]          36,928
              ReLU-4         [-1, 64, 600, 600]               0
         MaxPool2d-5         [-1, 64, 300, 300]               0
            Conv2d-6        [-1, 128, 300, 300]          73,856
              ReLU-7        [-1, 128, 300, 300]               0
            Conv2d-8        [-1, 128, 300, 300]         147,584
              ReLU-9        [-1, 128, 300, 300]               0
        MaxPool2d-10        [-1, 128, 150, 150]               0
           Conv2d-11        [-1, 256, 150, 150]         295,168
             ReLU-12        [-1, 256, 150, 150]               0
           Conv2d-13        [-1, 256, 150, 150]         590,080
             ReLU-14        [-1, 256, 150, 150]               0
           Conv2d-15        [-1, 256, 150, 150]         590,080
             ReLU-16        [-1, 256, 150, 150]               0
        MaxPool2d-17          [-1, 256, 75, 75]               0
           Conv2d-18          [-1, 512, 75, 75]       1,180,160
             ReLU-19          [-1, 512, 75, 75]               0
           Conv2d-20          [-1, 512, 75, 75]       2,359,808
             ReLU-21          [-1, 512, 75, 75]               0
           Conv2d-22          [-1, 512, 75, 75]       2,359,808
             ReLU-23          [-1, 512, 75, 75]               0
        MaxPool2d-24          [-1, 512, 37, 37]               0
           Conv2d-25          [-1, 512, 37, 37]       2,359,808
             ReLU-26          [-1, 512, 37, 37]               0
           Conv2d-27          [-1, 512, 37, 37]       2,359,808
             ReLU-28          [-1, 512, 37, 37]               0
           Conv2d-29          [-1, 512, 37, 37]       2,359,808
             ReLU-30          [-1, 512, 37, 37]               0
           Conv2d-31          [-1, 512, 37, 37]       2,359,808
           Conv2d-32           [-1, 36, 37, 37]          18,468
           Conv2d-33           [-1, 18, 37, 37]           9,234
          RoIPool-34            [-1, 512, 7, 7]               0
           Linear-35                 [-1, 4096]     102,764,544
             ReLU-36                 [-1, 4096]               0
           Linear-37                 [-1, 4096]      16,781,312
             ReLU-38                 [-1, 4096]               0
           Linear-39                   [-1, 88]         360,536
           Linear-40                   [-1, 22]          90,134
================================================================
Total params: 137,098,724
Trainable params: 137,098,724
Non-trainable params: 0
----------------------------------------------------------------
Input size (MB): 4.12
Forward/backward pass size (MB): 1570.76
Params size (MB): 522.99
Estimated Total Size (MB): 2097.87
----------------------------------------------------------------
Total GFLOPS: 370.210G
…
