…
  7                  -1  1     14702  ultralytics.nn.backbone.MobileNetV3.MobileNetV3_InvertedResidual[16, 16, 120, 5, 1, 1, 1]     
  8                  -1  1     19364  ultralytics.nn.backbone.MobileNetV3.MobileNetV3_InvertedResidual[16, 16, 144, 5, 1, 1, 1]     
  9                  -1  1     61752  ultralytics.nn.backbone.MobileNetV3.MobileNetV3_InvertedResidual[16, 24, 288, 5, 2, 1, 1]     
 10                  -1  1    211008  ultralytics.nn.backbone.MobileNetV3.MobileNetV3_InvertedResidual[24, 24, 576, 5, 1, 1, 1]     
 11                  -1  1    211008  ultralytics.nn.backbone.MobileNetV3.MobileNetV3_InvertedResidual[24, 24, 576, 5, 1, 1, 1]     
 12                  -1  1         0  torch.nn.modules.upsampling.Upsample         [None, 2, 'nearest']          
 13             [-1, 8]  1         0  ultralytics.nn.modules.conv.Concat           [1]                           
 14                  -1  1     85568  ultralytics.nn.modules.SlimNeck.VoVGSCSP     [40, 128]                     
 15                  -1  1      3352  ultralytics.nn.attention.attention.CoordAtt  [128, 128]                    
 16                  -1  1         0  torch.nn.modules.upsampling.Upsample         [None, 2, 'nearest']          
 17             [-1, 3]  1         0  ultralytics.nn.modules.conv.Concat           [1]                           
 18                  -1  1     29472  ultralytics.nn.modules.SlimNeck.VoVGSCSP     [136, 64]                     
 19                  -1  1      1688  ultralytics.nn.attention.attention.CoordAtt  [64, 64]                      
 20                  -1  1     19360  ultralytics.nn.modules.SlimNeck.GSConv       [64, 64, 3, 2]                
 21            [-1, 15]  1         0  ultralytics.nn.modules.conv.Concat           [1]                           
 22                  -1  1    105024  ultralytics.nn.modules.SlimNeck.VoVGSCSP     [192, 128]                    
 23                  -1  1      3352  ultralytics.nn.attention.attention.CoordAtt  [128, 128]                    
 24                  -1  1     75584  ultralytics.nn.modules.SlimNeck.GSConv       [128, 128, 3, 2]              
 25            [-1, 11]  1         0  ultralytics.nn.modules.conv.Concat           [1]                           
 26                  -1  1    355456  ultralytics.nn.modules.SlimNeck.VoVGSCSP     [152, 256]                    
 27                  -1  1      6680  ultralytics.nn.attention.attention.CoordAtt  [256, 256]                    
 28        [19, 23, 27]  1    751702  ultralytics.nn.modules.head.Detect           [2, [64, 128, 256]]           
mrd summary: 476 layers, 2057996 parameters, 2057980 gradients, 4.8 GFLOPs

Ultralytics YOLOv8.0.184 ðŸš€ Python-3.8.16 torch-1.10.1+cu111 CUDA:0 (Tesla V100S-PCIE-32GB, 32501MiB)
WARNING âš ï¸ Upgrade to torch>=2.0.0 for deterministic training.
[34m[1mengine/trainer: [0mtask=detect, mode=train, model=/public/agis/panweihua_group/jingxuebin/yolov8/ultralytics/ultra
…
